RN - PYTORCH/Resultado-do-Civic-Modelo.pth (torch, 8103 bytes, 6 tensors)

layer1.weight f4 [24, 28]
00000000: 028a 35bd 027e 923d 4b2c 1cbe d318 a53d
00000010: c4f5 283e e690 b23d cf74 05be 5e92 5c34
00000020: a941 f93d cc69 15be 4874 693d fcd7 bd32
00000030: faf9 a23d 33fd 8f3d 0f60 053d 11cc 1fbe
00000040: 65eb 1abd 1de6 8abd 3337 cdb6 ae9a 15bd
00000050: ed13 aa35 4160 9b3c 2bb8 0ebd f263 9b3d
00000060: 02f0 843d 7c5a bb3d d147 a33d 71ea 283e
00000070: 2a6b d13c f233 b0bd 88ea 02bd 828e 0abb
00000080: e26c 453c 8ac3 ce3b 5d50 78bc 9144 8f37
00000090: 074c f4bb 1278 8abc 256f 39bd 085c e2b3
000000a0: 035e 0cbb b4f1 4a3c f0db a13a 7234 d8ba
000000b0: c441 d23b d95d cd3b f61f b9b6 8db3 4e3d
000000c0: 764f 543b 6233 bcb7 b76b 3abd bb02 cd3b
000000d0: f146 ddbb 08af cd3b 9f02 9c3b 20b5 79bc
000000e0: db29 bf39 f430 f235 2597 8035 e16a 07bd
000000f0: 702a 22bd b89a 063d f730 9abc 614e ad3c
00000100: dc15 19bd fc68 febc 3861 41b3 63d3 4d3c
00000110: 7d5e c8bc 79dd ce3c 31dd 103d 8501 953c
00000120: 00dd f534 4a43 1c3d 2271 fa34 f299 39bc
00000130: 4efe 05b5 0392 803c 09cf 0d36 e09c b7b3
00000140: 3b30 253c 322f e03c 685f 31bc e6e0 4436
00000150: ef04 0a3e 9729 89bd 5fb9 4fbe b6a1 c03c
00000160: 4e0b 0bbd c7d2 493e 7c5c eabd 924d 363e
00000170: 75f8 0e3e a1ee 323d 0062 febd e4ce b237
00000180: 71d8 f9bd d097 71bd 81ef 313e 0756 bf3d
00000190: 5f25 83bd 9a26 3a3e edd3 d23d d832 e3bd
000001a0: 23b2 97bd 1d86 f9bc 0bbe 6dbd fa49 b63d
000001b0: b315 34be 8412 2b3e 2d02 66bb 750c 13be
000001c0: c03f 5cbd 98f7 ab3d 14a2 ce3d b868 ef3d
000001d0: 4221 e7bd 632d 64bd 9af9 0b3e 1e16 f13d
000001e0: ccf5 273e 79c0 173d 61c2 73bd 44de d037
000001f0: a5bb 853d ae7b c93d de03 3dbe 761f e9bd
00000200: a4b0 8bbc 76d2 b1bd 1c32 7abc 3f95 e7bd
00000210: 6982 3c3d 5cb6 143c f1e7 2b3e c439 b7bd
00000220: 401c c0bd ed14 c8bd 9ae8 2e3d 624a e5bb
00000230: 8965 b63d 935f 3ebe 9eba 27be 116b 0ebc
00000240: 8f4a 15be c7b4 10be 72de a73d 2187 01be
00000250: 5f3e 413e 058a 443d 6a34 833b d401 e736
00000260: 8a27 2a3c 31d9 153e 9c40 40bd d74f f13d
00000270: 4cb3 fcbd 9eb2 0bbd 255d 8fbd 1897 093e
00000280: 07c5 c73d 3df4 3bbd 5376 bbbd 36d6 ab3d
00000290: e1e5 1b3e 999d 6fb9 aaf6 5abe d99c 35bd
000002a0: 58f4 863d d607 03be 6fac e23d fc5b 193e
000002b0: b662 0f3e e20b 96bd ea36 3d3e 04f8 843d
000002c0: 2cf0 043e fd9a 203e 00b4 e13d 1350 3534
000002d0: fc38 3ebe c5b5 d03c 28ad b23d 273e 26be
000002e0: db10 7dbd 6871 88bd 0e72 17be e6da d83b
000002f0: 8a5a c7bd c8bd a3bd f4ad f1bd 57f3 2bbe
00000300: 3bcb 0abd f878 87bd 9105 fe3c 62fb 3a3c
00000310: 9cbc 33be 03b3 56bc a6c9 aebd 9943 283e
00000320: bab3 813d 2e1b 20be 46e9 47bd 0628 89bd
00000330: 3462 fbbc 14ed c03a 919d c03d 7a21 d435
00000340: cb5e 633b 15ef b4bd 9c6f 0dbe 32a7 efbd
00000350: b359 7abd c063 1c3d be21 e8bd 1563 88bd
00000360: e516 06be 9490 83b5 f690 543d 3a82 073e
00000370: 9071 2d3e b43b b83d b412 133e d51a 20be
00000380: bd56 a93d 441e ffbd 654e 9dbc ebe7 0e3e
00000390: 2bab 47be f1c9 933d 4a76 993d 1f25 73bd
000003a0: 597d 68be 2717 a53d ade1 46be f7bc 7435
000003b0: 5c4d b33d 4374 263c 0529 88bc 92df 0d3e
000003c0: 5d27 563d 7edb 703c fe82 783c 4fbc 593d
000003d0: 6f4d 50be 70ba 253d ea08 c0bd d474 0cbe
000003e0: 6406 0cbe 8a40 8bbd e1da 16be b2ae 8f3d
000003f0: d7b0 3fbe e7e0 3d3c df3c a1bd 4f1c 0e3e
-0.044321068 0.0715294 -0.15251271 0.080613755 0.16500002 0.087190434 -0.1303284 2.0542345e-07
0.12170727 -0.1459114 0.05699566 2.2100714e-08 0.079578355 0.07030716 0.03256231 -0.15605189
-0.037822146 -0.06782172 -6.115902e-06 -0.036524467 1.2671786e-06 0.018966796 -0.034843605 0.075874224
0.0649109 0.09148118 0.07972682 0.16495682 0.025563795 -0.08603658 -0.031961948 -0.002114207
0.0120498855 0.006309931 -0.015155879 1.7078857e-05 -0.007455352 -0.016902957 -0.04527201 -1.05406855e-07
-0.002141834 0.012386728 0.0012348872 -0.0016495122 0.0064165313 0.006267291 -5.5171504e-06 0.0504642
0.0032395995 -2.2435273e-05 -0.04551288 0.006256429 -0.0067528416 0.006276969 0.0047610546 -0.0152409375
0.00036461544 1.8044652e-06 9.580732e-07 -0.033060912 -0.039591253 0.032862395 -0.018822176 0.021155538
-0.037374362 -0.03105592 -4.5024734e-08 0.012562606 -0.024459118 0.02525209 0.035367195 0.018189201
4.5795605e-07 0.03815011 4.6648444e-07 -0.011328207 -4.9916423e-07 0.015694624 2.1131148e-06 -8.550137e-08
0.0100823 0.027366254 -0.010825969 2.9337184e-06 0.13478445 -0.06697386 -0.20285557 0.02351461
-0.033946328 0.19709311 -0.11443421 0.17803028 0.13961966 0.043684606 -0.12421036 2.1315594e-05
-0.12199486 -0.05898267 0.1737652 0.0934258 -0.06403612 0.18178788 0.10294328 -0.11093682
-0.07407024 -0.030459458 -0.058042567 0.08900829 -0.17586403 0.16706282 -0.0035096512 -0.1436022
-0.053771734 0.08396834 0.10089508 0.116898954 -0.1128564 -0.055707347 0.13669434 0.11771797
0.16402358 0.03704879 -0.059511546 2.4899033e-05 0.06529931 0.09838043 -0.18458506 -0.11382954
-0.017052002 -0.0868272 -0.015270736 -0.11307763 0.046022806 0.009076681 0.16787697 -0.08946565
-0.09380388 -0.09769616 0.042702295 -0.0069973925 0.08906085 -0.18591146 -0.16379783 -0.008692519
-0.14579223 -0.14131461 0.08196725 -0.12649204 0.18871449 0.04798319 0.004004051 6.8845493e-06
0.010385403 0.14633633 -0.046936616 0.11782806 -0.12338886 -0.03410589 -0.07000188 0.13436544
0.09754377 -0.04588722 -0.09153428 0.08390467 0.1522441 -0.00022851526 -0.21383157 -0.044339035
0.065895736 -0.12795958 0.11068045 0.14976496 0.14002499 -0.07326485 0.1847798 0.06492618
0.12982243 0.15684123 0.110206604 1.688607e-07 -0.18576425 0.0254773 0.08724433 -0.16234647
-0.061783653 -0.066622555 -0.14789602 0.0066178916 -0.09734066 -0.07995182 -0.11800757 -0.16792046
-0.033885222 -0.0661487 0.031008514 0.011412473 -0.17552418 -0.013104203 -0.08534555 0.16432036
0.06333108 -0.15635368 -0.04880645 -0.06697087 -0.030686475 0.0014719092 0.094050534 1.5804974e-06
0.0034693952 -0.08834664 -0.13812107 -0.11701812 -0.0611207 0.038181067 -0.11334561 -0.066595234
-0.13094671 -9.802338e-07 0.051896058 0.13233271 0.16937852 0.089957625 0.14362603 -0.15635236
0.08268497 -0.124569446 -0.01920242 0.13955657 -0.19498889 0.07216252 0.07493265 -0.059361573
-0.22704066 0.080610566 -0.19422026 9.1172063e-07 0.087549895 0.010159555 -0.016621122 0.13854817
0.052283634 0.0147007685 0.01516795 0.0531581 -0.20342039 0.040461004 -0.093767 -0.13716441
-0.13674313 -0.06799419 -0.14731933 0.07015742 -0.18719803 0.011589265 -0.07872938 0.13877986

layer1.bias f4 [24]
00000000: 99ef a43d c549 7e3d e6ea 76b9 1fe6 303e
00000010: 4cba 093e a1de 983c 1bd5 efbd feab 2a3e
00000020: 8f52 2ebe 9aa6 ddbd 3ed3 17be 6b12 4dbe
00000030: 94fa 92bc c5d1 6ebd 5663 c53d dfb2 043c
00000040: e162 0e3e 5f59 33bd 1614 58bc 7cfb 903d
00000050: ed3f a9bc 1524 c5bd c422 043e c96d 463e
0.08053512 0.06208207 -0.00023547895 0.17275284 0.13449973 0.018660845 -0.117105685 0.16667172
-0.17023681 -0.10822792 -0.14826676 -0.20026557 -0.01794175 -0.05830552 0.096380875 0.008099287
0.13904907 -0.043786403 -0.013188383 0.07079217 -0.020660365 -0.09626023 0.12903887 0.19377817

layer2.weight f4 [24, 24]
00000000: 56f4 463c 3b80 773b db03 2334 f9a6 e13c
00000010: 51b3 2dbd 4987 2b3b dfe1 e13c 614c 043d
00000020: 0084 d03c e391 2e3b 0ff1 19bd 313f 98bb
00000030: f570 64bb 4633 d33c 1f05 b53d e73c 6e3d
00000040: 491f 8f3c 9f62 653d 1e20 9d3b bc7b 8c3c
00000050: e5c1 163c 40a8 36bd 558c 933d 9684 403d
00000060: ba60 06bc fbc1 86bc 4046 fdbc 7a5d 3a3d
00000070: 70f0 0fbe 5190 83bd 5b52 f43d 3124 10be
00000080: 6936 823d 4693 85bd f5b7 d6bd 7514 4ebe
00000090: ba4f 333d 19cf 003e bbe2 8b3d 84bf 2d3e
000000a0: 4ac4 0cbe 573f a23d 0286 9dbb 906b f83c
000000b0: 0350 383b ddcf 0e3e f4e0 0b3d 2be2 413e
000000c0: 2873 a53c 7ab4 a3b6 91b5 9b35 89f5 0d3e
000000d0: 64ee bdbd 68d9 b13c 4b05 febd 6cc5 4abe
000000e0: 99ae 283e b81a d53b 6586 91bd 1622 fa3d
000000f0: 44dd cdbd 2e4f fa3d 5c8f fb3d 1db3 2bbe
00000100: 9c51 5a3c 39ce a5bc e42e bcbb 7e2f 88bd
00000110: 0dfc 0d3e 2be1 43be 3453 1cbe 0136 f7bd
00000120: 69dd 8934 a087 cb3b 03b4 073c 8e0f c3bc
00000130: d108 0a3d f880 0d3d b982 0c3e 4766 11be
00000140: 5328 4c3c cc87 1b3e 5da4 4dbd 8c4d eb3c
00000150: 1763 1d3a cd6c 58bd 89dc c93d df68 b5bd
00000160: a725 24bd 1b22 02ba 67cc 943a 7787 bdbd
00000170: 3acd 8bbd 5ca8 a9bc 3e37 a1bc 4ef3 16be
00000180: fb6d 7034 fd1f a6b8 16e9 55bd ba89 27be
00000190: 9d99 48be 7cf8 42be 4184 3abe 9135 9abc
000001a0: 66ec 87bc 9c5b 9239 3090 1bbc 24b8 0d3e
000001b0: a51c beb4 b440 723c ca01 3abe a035 433d
000001c0: c0a1 a5bd 09d7 7eb4 99ac 40bc 9f2c 2fbe
000001d0: d1f7 1ebb fdc0 9c3d ff08 38be 8833 b7bd
000001e0: 402b bebc e28e ab35 5a3e fc39 87c5 013e
000001f0: 7bf3 e5bd 6853 eabd 0163 48be ac67 11bd
00000200: e2e3 a03d d430 093e 51bf 5dbe 82d5 133e
00000210: d0b8 f83d a210 1f3e c3de ae3d 3733 923c
00000220: 1dec 2e3e 5033 55b4 653a 2eb9 cc4d 62bd
00000230: 6cdb d93d 9887 41be e8da 2fbe 0a62 cfbd
00000240: 177b 1fbc 28e3 b73c cf98 2e35 0286 eb3d
00000250: 54f8 b6bd 1c0b b3bd dac8 31be 59e4 3f3e
00000260: f05f 7c3d 4f28 3abd 9007 173e 2592 09be
00000270: a3f0 a9bd 6190 0cb5 bf7e 20be 3c69 d0bc
00000280: e133 703d ecc7 a73a 56f5 143b cbfd 70be
00000290: 035b 673d e852 7abd a1b0 63bd 3226 b3bd
000002a0: d632 a535 be3f 11bd bcaf c5b7 c287 60bd
000002b0: f9fa a93c a583 58be 1f7e 293e dcdf 5d3c
000002c0: 365c dc3c 98ae 453d 2d1f 8d3c 472a 50bc
000002d0: 0f60 203d 9c06 223e 42b5 40be b55e e43d
000002e0: c313 67bc eba3 4cbd d6f8 33bd 3899 0fbc
000002f0: 04e7 c3bd 0980 25be ca9e 253d f0d6 c9bc
00000300: 7a3e 2b3e 599c 2e3c ede6 7035 349b 073e
00000310: ac19 bdbd 9936 b83d 5564 b9bc dc46 d3bd
00000320: bea7 23bb 9c9b 2f3c a093 383e 6f4a ca3c
00000330: 448d 983d c375 e9bd a6a2 383b e347 9bbd
00000340: 5313 4abe 79e8 ecbd 985c b23d 86db d13d
00000350: cc9f 253d 947d a0bd e08b ce3c 7c68 cd3d
00000360: 2920 dd3b d6ce b63d 0128 f03a 4e7c c93d
00000370: 8d69 08be c503 49be 0dab 563d c141 b73c
00000380: 2110 b83d cac0 14be c14c 063e 5b29 4ebd
00000390: 8deb 203e ef2f c1bd 4265 1d3e f574 303d
000003a0: c17b 1cbb 1e0e edbc 2112 80bd b5b3 24be
000003b0: f48d 40be c89f dd3d 998b 0d3e 4142 84bd
000003c0: a80a 6b3d 8d41 19b9 8523 89bc 8639 98bb
000003d0: 6c5e 31be 34e0 dbbd e5e9 43bc fe45 efbd
000003e0: ecca f03d 4ace 66bd 932f 8b3b 472c 0cbd
000003f0: eb91 5ebd 9f17 223d 73b7 d13d 7684 8e3d
0.012143215 0.003776564 1.518196e-07 0.02754544 -0.042407338 0.0026173166 0.027573524 0.032299403
0.025453568 0.0026637248 -0.037583407 -0.004646205 -0.0034857367 0.025781285 0.088388674 0.05816355
0.017470973 0.056002256 0.0047950884 0.017148845 0.0092015015 -0.04459405 0.072045006 0.047001444
-0.008201772 -0.016449919 -0.030917287 0.045499302 -0.14056563 -0.064240105 0.119297706 -0.14076306
0.06358034 -0.06522231 -0.10484306 -0.20124991 0.043777205 0.12579001 0.06830355 0.16967589
-0.13746753 0.07922237 -0.0048072347 0.030324727 0.0028123863 0.13946481 0.03415008 0.18933932
0.020196512 -4.878789e-06 1.1601243e-06 0.13863195 -0.09273985 0.021710113 -0.12403353 -0.19801873
0.16472854 0.0065034293 -0.07105712 0.122135326 -0.10051969 0.122221336 0.12283203 -0.16767545
0.013325121 -0.020239936 -0.0057428945 -0.066496834 0.13865681 -0.19128864 -0.15266114 -0.12070847
2.5679336e-07 0.006211236 0.008282664 -0.023811128 0.033699814 0.034546822 0.13721742 -0.14199172
0.012460786 0.15188521 -0.050205577 0.0287235 0.000600384 -0.052838136 0.09856517 -0.08857893
-0.04007497 -0.00049641886 0.001135242 -0.092543535 -0.06826253 -0.020710163 -0.019679662 -0.14741251
2.2391752e-07 -7.921455e-05 -0.05222424 -0.16361132 -0.19589849 -0.19040102 -0.18214513 -0.01882437
-0.016592216 0.00027915544 -0.009494826 0.13839775 -3.54111e-07 0.014785934 -0.18164745 0.047658563
-0.08087492 -2.3733823e-07 -0.0117599005 -0.17106865 -0.0024256597 0.07653997 -0.17972182 -0.08945376
-0.023213983 1.2782077e-06 0.0004811164 0.12673007 -0.11228081 -0.1144169 -0.19569017 -0.03549926
0.07855965 0.13397533 -0.21655013 0.14436916 0.12144625 0.15533689 0.08538582 0.017846687
0.17082258 -1.9855838e-07 -0.00016615687 -0.055249974 0.106375545 -0.18899381 -0.1717335 -0.10126121
-0.009733937 0.022447184 6.5042417e-07 0.11500169 -0.089340836 -0.08742353 -0.17361775 0.18739451
0.06161493 -0.045448598 0.14748979 -0.13434656 -0.08297851 -5.2364163e-07 -0.1567335 -0.025440805
0.058643226 0.001280067 0.002272924 -0.23534314 0.05648328 -0.06111422 -0.05558837 -0.087475196
1.2308253e-06 -0.03546118 -2.3566063e-05 -0.05481697 0.020749556 -0.21143968 0.16552018 0.013542142
0.026899438 0.04826221 0.01722678 -0.012705392 0.03915411 0.15822834 -0.18819144 0.111508764
-0.014103833 -0.04996101 -0.04393848 -0.008764558 -0.09565547 -0.16162123 0.040434636 -0.024638623
0.16723052 0.010657393 8.974301e-07 0.13242799 -0.09233412 0.08994789 -0.02263085 -0.1031625
-0.0024971808 0.0107182525 0.18025064 0.024693696 0.07448819 -0.113994144 0.0028173118 -0.07582071
-0.19733934 -0.11567778 0.08709067 0.10246949 0.040435597 -0.07836452 0.025213182 0.100296944
0.0067482186 0.089261696 0.0018322469 0.09838162 -0.13321514 -0.19630344 0.05240922 0.022370221
0.08987451 -0.14526668 0.13115217 -0.05033241 0.15714855 -0.09432971 0.15370658 0.04308029
-0.0023877474 -0.028937396 -0.06253458 -0.16084178 -0.18804151 0.108214915 0.13822784 -0.064579494
0.05738321 -0.00014615637 -0.01674057 -0.004645529 -0.17321175 -0.10736123 -0.01195762 -0.11683272
0.11757454 -0.056349076 0.0042476146 -0.034221914 -0.054338377 0.039573308 0.10240068 0.06958859

layer2.bias f4 [24]
00000000: f3b1 093d c9dd dc3b 9121 67bd 4834 0c3c
00000010: b3df 56be 98a8 353c 1657 52be c264 0bbd
00000020: 6ea4 1c3e 897d 083c fdad 0dbe 5afe 2c3d
00000030: e5df 8dbd 5846 14bc bd05 f63d bcf5 02be
00000040: dde1 123e 1909 c1bd c30e 29be b736 7cbe
00000050: 70f3 2d3e f6b5 1bba 7483 693d ac24 bebd
0.03361697 0.006740306 -0.056428496 0.008557387 -0.20983772 0.011087559 -0.20541033 -0.034031637
0.152971 0.008330711 -0.13835903 0.042234756 -0.0692747 -0.009049974 0.12012813 -0.12789053
0.14343973 -0.09425563 -0.16509537 -0.24630247 0.16987395 -0.0005939895 0.05701013 -0.09284338

layer3.weight f4 [6, 24]
00000000: 997a 843c 4c37 5c3c e219 e0bd 1790 85bc
00000010: 3574 a6bd 710e 05bd c15a 533e b2a3 debd
00000020: 5fef 0abd a753 353e db3d c8bd f6a4 b03d
00000030: 1e28 843d 2a84 eaba b6f5 dbbd 2318 f3bb
00000040: f317 073e 6655 f2bc f8ef babd e99e 94bd
00000050: 6ee5 0e3e 79e8 30b5 10ed 35bd bc07 303d
00000060: c4b8 c1bd af8c 49bd 3e58 37be ccdd 2f3e
00000070: e99f 1cbe a4e8 e2bd 35df b73c a045 213d
00000080: bbbb ff3d 1472 a03d a764 143e 30ac efbd
00000090: 9192 8cbc 7c53 d4b9 6742 4ebd 6fff a6bb
000000a0: 2688 ccbd 660c 8dbd 6d36 0cbe f947 223e
000000b0: 288c bbbd 4c9e c733 52de 41bc 181c 99bc
000000c0: 5631 4ebd af36 3b3e 086c 2bbe bd03 29be
000000d0: 7500 ea3d 4736 3e3e 6dc7 8e3d 248a 943d
000000e0: db9c 90bd 3344 0abe de46 233e a472 c9bd
000000f0: 6e5e 4dbd 6ebd 69bc 03c2 80bd 3473 b6bd
00000100: 8826 b03d 7fbd b1bb a3a0 0ebe cc01 133e
00000110: 7f14 533e 741e 5bb4 1c42 053e fdaf d93d
00000120: 920d 31bc db46 9b3c a6f7 873d f972 38bd
00000130: 5f03 773d 4edf 313e 4757 da3d 9d2b 1f3e
00000140: 349d 203e 2bd1 d43d 5700 aabd 3459 d73d
00000150: d2e7 40bd 9f8a 90bc 2831 7e3d 661b cd3d
00000160: 728f d8bd a819 2e3d 45e9 0cbe 6c73 6b3c
00000170: 74c7 0c3e f50d 33bc 20c8 113e b024 c5bd
00000180: 4b6a 09be 1a03 d33d 90cc e13d e7c8 08be
00000190: 79cc c9bd c637 553e e347 703c e960 30be
000001a0: 6e9f 6f3d 8d27 a5bd 32cd 1cbe 0130 5cbb
000001b0: dac7 06be b957 3b3d c04a e7bd 247c a1bd
000001c0: debe 8abe f89f a1bc 702f 05bd 88c0 4b3d
000001d0: f3aa c6bd 6c60 a5b9 aa70 2dbe e0e7 953d
000001e0: c918 98bd 4d07 24be 87af 1f3e 0811 d7bd
000001f0: 38cb 8f3d 2b8d f73d a6e9 efbc 6e20 e63d
00000200: bf29 bb3d 54af 25be f119 03bd 16f5 a53d
00000210: 5474 39bd 82e9 3bbd 9044 96bd 0128 16bd
00000220: 7f4f 7ebe 6911 1abe 76ac f83c 2054 0f3e
00000230: 207e 8abc 9eb7 55bd a05e febc 1298 a23d
0.01617174 0.013440918 -0.10942437 -0.016304059 -0.081276335 -0.032484476 0.20640089 -0.10871066
-0.03391969 0.17707692 -0.09777423 0.08625214 0.06452964 -0.0017892171 -0.10740225 -0.007418649
0.1319273 -0.029581737 -0.09127802 -0.07256872 0.13954708 -6.59034e-07 -0.044415534 0.042976126
-0.09459069 -0.049206432 -0.17904755 0.17174453 -0.15295376 -0.11079529 0.0224453 0.03937304
0.124869786 0.07834259 0.14491521 -0.11702764 -0.017159732 -0.00040497992 -0.050356295 -0.005096368
-0.09986906 -0.068871304 -0.13692637 0.15847768 -0.09157592 9.295454e-08 -0.01183279 -0.018690154
-0.05034002 0.18282579 -0.1674043 -0.16505332 0.114258684 0.18575393 0.06971631 0.07252911
-0.07061168 -0.13502578 0.15945002 -0.09836319 -0.050138883 -0.014266355 -0.06287005 -0.08908692
0.08601099 -0.005424201 -0.13928466 0.14356154 0.20613287 -2.0407043e-07 0.130135 0.1062927
-0.010806458 0.018954685 0.06639032 -0.04503152 0.06030595 0.1737034 0.10661178 0.15543981
0.15684968 0.10391458 -0.08300846 0.10515061 -0.04709608 -0.017644225 0.062058598 0.100149915
-0.10574235 0.042504936 -0.1376086 0.01437078 0.1374796 -0.010928621 0.14236498 -0.09626138
-0.13419454 0.10303326 0.11025345 -0.13357888 -0.09853453 0.20822057 0.014665577 -0.17224468
0.058501653 -0.08064184 -0.15312651 -0.0033597948 -0.13162175 0.045737956 -0.11293554 -0.07885006
-0.27098745 -0.0197296 -0.032515943 0.04974416 -0.09700575 -0.00031543092 -0.16937509 0.07319617
-0.074266024 -0.1601841 0.15594302 -0.10501295 0.07021183 0.120874725 -0.029286217 0.11236654
0.09138822 -0.16180164 -0.03200716 0.08103387 -0.045276955 -0.045876987 -0.07337296 -0.036659244
-0.24835013 -0.15045704 0.030355673 0.13996935 -0.016905844 -0.052177064 -0.03105098 0.07939161

layer3.bias f4 [6]
00000000: d8f8 303e f6fe ba3d 2d8e 593e 6e0a b03b
00000010: 2cd8 4cbc 249a 9fba
0.17282426 0.09130661 0.21245642 0.005372337 -0.012502711 -0.0012176675
